…
the original paper’s model, taking 50-mer sequences and predicting:\n\nthe logits for 187 viruses\nthe logits for one of 10 regions in the original virus genome\n\n\nmodel = create_model_original(load_parameters=False)\n\nCreating CNN Model (Original)\nCreated randomly initialized model\n\n\n\nmodel.summary()\n\nModel: \"CNN_Virus\"\n\n\n\n┏━━━━━━━━━━━━━━━━━━━━━┳━━━━━━━━━━━━━━━━━━━┳━━━━━━━━━━━━┳━━━━━━━━━━━━━━━━━━━┓\n┃ Layer (type)        ┃ Output Shape      ┃    Param # ┃ Connected to      ┃\n┡━━━━━━━━━━━━━━━━━━━━━╇━━━━━━━━━━━━━━━━━━━╇━━━━━━━━━━━━╇━━━━━━━━━━━━━━━━━━━┩\n│ input-seq           │ (None, 50, 5)     │          0 │ -                 │\n│ (InputLayer)        │                   │            │                   │\n├─────────────────────┼───────────────────┼────────────┼───────────────────┤\n│ conv-1 (Conv1D)     │ (None, 50, 512)   │     13,312 │ input-seq[0][0]   │\n├─────────────────────┼───────────────────┼────────────┼───────────────────┤\n│ bn-1                │ (None, 50, 512)   │      2,048 │ conv-1[0][0]      │\n│ (BatchNormalizatio… │                   │            │                   │\n├─────────────────────┼───────────────────┼────────────┼───────────────────┤\n│ maxpool-1           │ (None, 25, 512)   │          0 │ bn-1[0][0]        │\n│ (MaxPooling1D)      │                   │            │                   │\n├─────────────────────┼───────────────────┼────────────┼───────────────────┤\n│ conv-2 (Conv1D)     │ (None, 25, 512)   │  1,311,232 │ maxpool-1[0][0]   │\n├─────────────────────┼───────────────────┼────────────┼───────────────────┤\n│ bn-2                │ (None, 25, 512)   │      2,048 │ conv-2[0][0]      │\n│ (BatchNormalizatio… │                   │            │                   │\n├─────────────────────┼───────────────────┼────────────┼───────────────────┤\n│ maxpool-2           │ (None, 13, 512)   │          0 │ bn-2[0][0]        │\n│ (MaxPooling1D)      │                   │            │                   │\n├─────────────────────┼───────────────────┼────────────┼───────────────────┤\n│ conv-3 (Conv1D)     │ (None, 13, 1024)  │  3,671,040 │ maxpool-2[0][0]   │\n├─────────────────────┼───────────────────┼────────────┼───────────────────┤\n│ conv-4 (Conv1D)     │ (None, 13, 1024)  │  7,341,056 │ conv-3[0][0]      │\n├─────────────────────┼───────────────────┼────────────┼───────────────────┤\n│ bn-3                │ (None, 13, 1024)  │      4,096 │ conv-4[0][0]      │\n│ (BatchNormalizatio… │                   │            │                   │\n├─────────────────────┼───────────────────┼────────────┼───────────────────┤\n│ maxpool-3           │ (None, 7, 1024)   │          0 │ bn-3[0][0]        │\n│ (MaxPooling1D)      │                   │            │                   │\n├─────────────────────┼───────────────────┼────────────┼───────────────────┤\n│ flatten (Flatten)   │ (None, 7168)      │          0 │ maxpool-3[0][0]   │\n├─────────────────────┼───────────────────┼────────────┼───────────────────┤\n│ dense-1 (Dense)     │ (None, 1024)      │  7,341,056 │ flatten[0][0]     │\n├─────────────────────┼───────────────────┼────────────┼───────────────────┤\n│ bn-4                │ (None, 1024)      │      4,096 │ dense-1[0][0]     │\n│ (BatchNormalizatio… │                   │            │                   │\n├─────────────────────┼───────────────────┼────────────┼───────────────────┤\n│ do-1 (Dropout)      │ (None, 1024)      │          0 │ bn-4[0][0]        │\n├─────────────────────┼───────────────────┼────────────┼───────────────────┤\n│ labels (Dense)      │ (None, 187)       │    191,675 │ do-1[0][0]        │\n├─────────────────────┼───────────────────┼────────────┼───────────────────┤\n│ concat              │ (None, 1211)      │          0 │ do-1[0][0],       │\n│ (Concatenate)       │                   │            │ labels[0][0]      │\n├─────────────────────┼───────────────────┼────────────┼───────────────────┤\n│ dense-2 (Dense)     │ (None, 1024)      │  1,241,088 │ concat[0][0]      │\n├─────────────────────┼───────────────────┼────────────┼───────────────────┤\n│ bn-5                │ (None, 1024)      │      4,096 │ dense-2[0][0]     │\n│ (BatchNormalizatio… │                   │            │                   │\n├─────────────────────┼───────────────────┼────────────┼───────────────────┤\n│ pos (Dense)         │ (None, 10)        │     10,250 │ bn-5[0][0]        │\n└─────────────────────┴───────────────────┴────────────┴───────────────────┘\n\n\n\n Total params: 21,137,093 (80.63 MB)\n\n\n\n Trainable params: 21,128,901 (80.60 MB)\n\n\n\n Non-trainable params: 8,192 (32.00 KB)\n\n\n\n\nmodel = create_model_original(load_parameters=True)\n\nCreating CNN Model (Original)\nLoading parameters from pretrained_model.h5\nCreated pretrained model",
…
